model.pth (torch, 237063 bytes, 10 tensors)

rnn.weight_ih_l0 f8 [80, 80]
0	0x3ff577bf5277a57e	1.3417351933843231
1	0x3fec9aa2c960964b	0.8938764508390674
2	0x3fd7fb15ec46478e	0.3747000510567141
3	0xbfcfcd63d6295935	-0.24845550496201843
4	0x3ff58d442dddba31	1.346988848843136
5	0x3fe3e1212db05c60	0.6212316410409464
6	0x3fb023f3e61c0b3b	0.06304859512242171
7	0xbfe58bb315533c26	-0.6733031670099805
8	0x3fe5bf2971bab097	0.6795851918482353
9	0x3fdafaa460a56984	0.4215479797182058
10	0xbfd61e0d7e30e907	-0.3455842716536072
11	0xbfe79ec6c7cb7f65	-0.7381318952793491
12	0x3fe1972ff6e588d8	0.5497054884147259
13	0xbfc0068829ba8537	-0.12519933736352026
14	0xbfe8dcfe23536e88	-0.7769766511878098
15	0xbff2ce9ad4366db0	-1.1754406251483083
16	0x3fca05fe80d55b91	0.20330792704291104
17	0xbfe4c8401f8ef31c	-0.6494446388602202
18	0xbff1e313235576a6	-1.1179381733158293
19	0xbffc7625890ff846	-1.7788443902968694
20	0x3fcbfbf4893bb4ba	0.21862656308022627
21	0xbfe928604fe49349	-0.7861787376792587
22	0xbff2e5bf73458284	-1.181090784339319
23	0xbffd6e414950faec	-1.8394177307051747
24	0x3fa5a58f05bd64b7	0.042278737497960454
25	0xbfe006c070596d0e	-0.5008241838762915
26	0xbff0680c527cd83e	-1.0254023763823308
27	0xbffa03a292eec1f3	-1.625887464481022
28	0xbfc12861f069edf6	-0.13404487837748008
29	0xbfdca39dc095ca6d	-0.44748634154453876
30	0xbfed72f54ce024ef	-0.9202829839206553
31	0xbff56e04eed0d167	-1.3393601731050582
32	0x3fbce71d2152399e	0.11290151656633049
33	0xbfe0726a4db804ca	-0.5139667051263583
34	0xbfefd3f636a4b78a	-0.9946242396597296
35	0xbff27cad41c47f16	-1.155438668160007
36	0x3f8d2268d10cc2a3	0.014225787048048949
37	0xbfcd974fb8d2031d	-0.23118015789443627
38	0xbfd647e4cce3f5cf	-0.3481380463489047
39	0xbfe1b0018cb6289a	-0.5527351139328573
40	0xbf9ee31b9e645d1e	-0.030163222830279605
41	0xbfb5a772b7a38200	-0.08458630545965917
42	0xbfd4af906f55ebf7	-0.32321558830852787
43	0xbfd0b44259551c81	-0.2610021469485631
44	0xbfa5182fb4734104	-0.04120015218507159
45	0x3fb1c15c6a19088e	0.06935670461919782
46	0xbfb29d5d29680824	-0.07271368275544937
47	0x3f8b5c18ed9557fc	0.013359255552739306
48	0x3fa8ece63e68e0e0	0.048682398908967306
49	0x3fc459bec18a1d90	0.1589888043419987
50	0x3fc6ca774081057c	0.17805376672371753
51	0x3fce0f21ca4b3a04	0.23483679177884664
52	0x3fc82b95db09c87f	0.1888301200411355
53	0x3fd4348cb76191d7	0.3157073775130618
54	0x3fac53ce46f168f2	0.055326887283358675
55	0x3fb09b6f02187979	0.06487172890817829
56	0x3fc094a38a696b50	0.12953609712971081
57	0xbfb2ae30dd3808da	-0.07297044182635962
58	0x3fbb51f86a623dd5	0.10671951863536518
59	0x3fb66c1969ecc881	0.08758696399744005
60	0x3fbb1c8d8b3aeb49	0.10590443276570939
61	0xbfa678df61072e63	-0.043890934557194304
62	0x3fc2a098af1a359c	0.14552601385041164
63	0x3fc3908b2ab99add	0.15284862123663503
64	0xbf82e6cd61c70f32	-0.009229282900271227
65	0x3fd051160ba66a58	0.2549491037149543
66	0x3fd58207bb4e9d95	0.3360614136858769
67	0x3fd83df96043aec5	0.37878260041064166
68	0x3fc0f29345855f9b	0.1324028100450477
69	0x3fd16016765339ec	0.2714897304075794
70	0x3fe1f1aa58679be7	0.5607501722960223
71	0x3fe64270fb641f8c	0.6956105146391436
72	0x3f6b454f87d50968	0.003328948338691951
73	0x3fd24a8315838e04	0.28579785443272976
74	0x3fd072cc2a479e76	0.2570066845787332
75	0x3fea079681d533b5	0.8134262595937033
76	0x3fb434661f9f622d	0.07892454406772549
77	0x3fd1925f7ad6b556	0.27455889697997315
78	0x3fe1ac9a7e243062	0.5523197616289617
79	0x3fedc2685df6eca4	0.9299814067120633
80	0x3fe50e578682d263	0.6580007197540677
81	0x3fb1c87a643f29d1	0.06946530291967369
82	0xbfcab050820d3d08	-0.20850569105321193
83	0xbfe020b4b06ef155	-0.5039924093212372
84	0x3fe021981732ec99	0.5041008427719077
85	0x3fbc4d5e652c546c	0.11055555315063409
86	0xbfcc1d429bde7466	-0.2196429501608776
87	0xbfeb15eee4c7d4be	-0.8464273899432084
88	0xbfaa4e588d51d30b	-0.05137898182957742
89	0xbfd15496a3bae90c	-0.27078786839742075
90	0xbfe70c48b43b983c	-0.7202495117351257
91	0xbfedde1e54d94a37	-0.9333640725329307
92	0xbfc517d6e2c74b23	-0.16479002068680257
93	0xbff14e570638e236	-1.081625961595035
94	0xbffb7ba0b036dc98	-1.7176825412150603
95	0xc000972c714c384c	-2.0738152362237425
96	0xbfdd605caa1bf768	-0.4590064679358563
97	0xbffd99082c8857ad	-1.8498613109163486
98	0xc002c4c21cd549b8	-2.346073365458519
99	0xc0076cab97087978	-2.928061656900521
100	0xbfe233ed2044bda4	-0.568838656448794
101	0xbff699d3900aa918	-1.4125552775026957
102	0xc00086f61635d60d	-2.065899060743283
103	0xc003bc1c2d2dc4c9	-2.46685061736989
104	0xbfceb41896a46b81	-0.23987109523372044
105	0xbff053df2144d01c	-1.0204764651834983
106	0xbff5f7c30a02ea01	-1.3729887381620076
107	0xc00015459365f7b0	-2.0103866115086575
108	0xbfc3d066dd1b7ef1	-0.15479741855869336
109	0xbfdff204b2c07954	-0.4991466279624508
110	0xbff096046f58d488	-1.0366253232471383
111	0xbff83c76e670190b	-1.5147618295173426
112	0xbfb30704d005abd7	-0.07432584837594845
113	0xbfdfd54ccfcf0db6	-0.4973938016302911
114	0xbfe751fce8546959	-0.7287582910242164
115	0xbff51be783a4dd29	-1.3193125860542045
116	0xbfc862ec94bea469	-0.1905189253132307
117	0xbfc9501c7c79ea58	-0.19775730207386988
118	0xbfd87831669ec499	-0.38233599683287306
119	0xbfdc15404f7031e5	-0.43879707105295856
120	0xbfd6ae913bb7a10a	-0.35440474349754025
121	0xbfa7cfd781056447	-0.046507582187310485
122	0x3fb2cbdbc8c5efe6	0.07342313434304479
123	0x3fc2d55062ee5b0a	0.14713482695216157
124	0xbfc0effe3d7a30d0	-0.13232400895902297
125	0x3fcc28efff7a7fd9	0.21999931311165602
126	0x3fda0d5b88364c81	0.40706527997935643
127	0x3fd4af4182e35129	0.32319677145030085
128	0x3f90c05c5d7de549	0.016358798223767654
129	0x3fac0c815e365e8b	0.05478290820172756
130	0x3fd0c843f2cb27dd	0.26222323141393905
131	0x3fc5debed7be9fb8	0.17086015257268428
132	0xbfc0974f6e744e72	-0.12961762326505127
133	0x3fb807106b5cd898	0.09385779019507579
134	0x3fc0dea23aecdd81	0.13179424168786727
135	0x3fd1dee3fa153657	0.2792291586127695
136	0xbfbe783a8a98b707	-0.11902204402641924
137	0xbfc23c51a12f383e	-0.142465785697313
138	0xbfc69458c763ac99	-0.17640218482788297
139	0x3fb0472fa1d5ae0a	0.06358621312181625
140	0xbfca3a2aa9204bf6	-0.20490010507691608
141	0xbf937ae774a1d373	-0.01902352952352566
142	0xbfcbb48706d19829	-0.21644676049180703
143	0x3fcde331f8b691bb	0.2334959473056538
144	0xbfc9b39d8af60d4a	-0.20079392705165794
145	0xbfc761b161a02da1	-0.18266885058288287
146	0x3fbdf477837d58bc	0.11701151809879468
147	0x3fd0b5c73473b429	0.2610948574281929
148	0xbfd4d5627ff41c76	-0.3255239724680402
149	0xbfc569d13f0f07cd	-0.16729178980864248
150	0x3fbe128d53fab14d	0.11747058201098533
151	0x3fcf2ff183e684eb	0.24365061703159738
152	0xbfcf3e73166d586a	-0.24409330935549473
153	0xbfd6b5371d7c4b21	-0.35481050376363227
154	0x3fc6abc5de943286	0.1771170937357917
155	0x3fd8df7814b4fec3	0.38863946935815025
156	0xbfe33da437edbf91	-0.6012745945317751
157	0x3f8afd13180c6f6c	0.013178013965038558
158	0x3fd1edc39b860a68	0.2801369684968109
159	0x3fe99b0f8c1f6c56	0.8001783119938277
160	0x3f806703ccd8e914	0.008008985222762756
161	0x3fd948b8c90dfc83	0.3950635875152743
162	0x3fd6c752cb439550	0.3559157357215854
163	0x3fe0bca73d68e409	0.5230289649399548
164	0xbfaf3842dd7cc4a2	-0.06097611383155167
165	0x3fd7c32dc21a918b	0.3712877650780448
166	0x3fdc149c8bca18fd	0.43875802661240454
167	0x3fd2999925534610	0.2906248917107357
168	0x3faf00a2f3164692	0.06055173127527981
169	0x3fcc038799d45a06	0.21885771762090672
170	0x3fe1e7fe61b6bb0f	0.5595695408318039
171	0x3fd5c175b78e484d	0.3399328510796565
172	0x3fc3da7ff1a270f1	0.15510558413087197
173	0x3fdd8bddfb1e8914	0.46166181109778504
174	0x3fdbe44fb3be9e75	0.43581001809295766
175	0x3fe25eb1c966ebf2	0.5740593846925306
176	0x3fdb4a951c56d24f	0.42642715232367306
177	0x3fe0453beaf4e42c	0.5084514225956176
178	0x3fe473454deb4573	0.6390711328369164
179	0x3fe7951cfae641d6	0.7369522953395584
180	0x3fdb04140a98ac6b	0.42212391886523076
181	0x3fe20082f7d66f21	0.5625624504641317
182	0x3fde34a9e5e099cf	0.47196433495483076
183	0x3fe6cf814ef2824b	0.7128302137317147
184	0x3fdc0dd9ba46dc7c	0.4383453673467057
185	0x3fd82b5a293895f1	0.3776460077809523
186	0x3fd7ce675910513a	0.37197288224821856
187	0x3fd6b41096afc466	0.3547402831600891
188	0x3fd0ccff2ca7529b	0.26251201019958054
189	0x3fca69f3f564abd1	0.206358427830621
190	0x3fc109d586ba1f7f	0.13311261251896764
191	0x3fd0f1d7e0211224	0.26476094138732464
192	0x3fd21f8038bf2099	0.28317266027125637
193	0x3f74570bc5da8de2	0.0049658260228712964
194	0xbfb956366ee11862	-0.0989717503262866
195	0xbfb4d94e6a0c14ea	-0.08144083107989145
196	0x3fcc7f6e8cabbd56	0.2226389109486983
197	0x3fc346ee08f7b6aa	0.15060210645554167
198	0x3f9edbe2ef1a2f97	0.030135675281186627
199	0xbfb58c7077243159	-0.08417418392872857
200	0x3fb7f99a9c47f1a5	0.09365240397887094
201	0xbf6b4d170ef9b2e8	-0.0033326578484803478
202	0xbfcc126f54b60148	-0.21931258808400345
203	0xbfdb78005965c825	-0.4291993020079892
204	0x3fd55506d04f5e2d	0.3333146127965588
205	0xbfa8e602566b0b4f	-0.04862983040722801
206	0xbfc5be09c7ed6c79	-0.16986200582582336
207	0xbfc148d47016f89e	-0.13503509019023324
208	0x3fd64195a7b6af8e	0.347752965720013
209	0x3fcca3997355bef0	0.2237426579626951
210	0x3fc84c641c3937d9	0.18983127000905034
211	0xbfc01f9752b905c2	-0.12596408404537668
212	0x3fd2ac2c46d09e29	0.2917586032440079
213	0x3fcbed4552c1d49c	0.2181784299934052
214	0x3fa647a9f402982d	0.04351550201072061
215	0xbfc262ec10b4f361	-0.14364386382831199
216	0x3fd9bd65ad05c90f	0.4021848859475918
217	0x3fdfa4d763bc8771	0.4944361185063065
218	0x3fc81b22e28dd192	0.18832813322263725
219	0xbf97ea1d5530a8a4	-0.02335401375254577
220	0x3fd3ae4986277317	0.3075126466845161
221	0x3fe1211e47ae0bae	0.5352927589414003
222	0x3fd73f44bf1b1104	0.3632366052882079
223	0x3fd400a97910632d	0.3125404054895167
224	0x3fc54947ef235201	0.16629885841997807
225	0x3fd8e8c5b9ebc79f	0.3892072978625211
226	0x3fcc2254b4e76e52	0.2197976954765744
227	0x3f95d4aaa9159260	0.021319071359715003
228	0x3fce497f5c23f391	0.23661796568913165
229	0x3fd5bf0b17294d75	0.3397853590187972
230	0x3fd358043c710f56	0.3022471037149804
231	0x3fcea40532f8c7c9	0.23938050259454105
232	0x3fd3dac44087a0f2	0.310227454202063
233	0x3fd7ac2bf2a0a31d	0.369883524838359
234	0xbfa59ef40b029355	-0.04222834238433985
235	0xbfb3b86b1789d0f7	-0.07703275036493894
236	0x3fd0bf30e398adce	0.261669370901214
237	0x3fb36693c10fd02d	0.07578395331785322
238	0xbfc54526ca348e78	-0.16617283700280772
239	0xbfc91794308e3e5b	-0.19603206988220986
240	0xbfcb5a806027ba38	-0.21369938559605983
241	0xbfbc4f3c02ff5a90	-0.1105840213125282
242	0xbfbb06c6dd9802f0	-0.1055721560478664
243	0x3fb50724d8841f81	0.08214025770223367
244	0xbfbdd4d508a56fa1	-0.11652881108369552
245	0xbfc004f9763ea3b5	-0.1251518084875706
246	0x3f90685b211ecdb3	0.016023086449150358
247	0x3fd797c9bd6b190e	0.3686394071377358
248	0xbfda82f7c186f49a	-0.41424363993776014
249	0xbfd03d78885aad8a	-0.25375188175049657
250	0x3fbee011489dd7e3	0.12060649893632518
251	0x3fc336b62302bfdb	0.1501071616125945
252	0xbfe288d217c953c1	-0.579201742608909
253	0xbfdbacca0eb313e2	-0.4324212211179753
254	0x3f923178541bc4b9	0.017766838201116218
255	0x3fca6003d2257b57	0.20605514298491798

rnn.weight_hh_l0 f8 [80, 80]
0	0xbfd7fd34a7a4e48d	-0.37482944842810967
1	0xbfcfc8926315fc11	-0.24830846632173167
2	0xbfa21b7582442a77	-0.0353657456890532
3	0x3f6934daba0966ac	0.0030769607549644053
4	0xbfc7f8227d854927	-0.187259970940951
5	0xbfc08f352aa1e6ff	-0.12937035161649388
6	0xbfd00ceb2353f854	-0.2507884831428602
7	0x3fcced1d78a7ade5	0.22598617926938327
8	0xbfa4d62b700ab2ff	-0.04069648497293165
9	0xbfb38ab174923548	-0.07633504005408043
10	0x3fad81e8e05b462b	0.05763175715186394
11	0xbf900473c138a09c	-0.015641983669553924
12	0xbfe23adac774bfdf	-0.5696844001413374
13	0x3fc8aa0af0567a4b	0.1926892922901565
14	0x3fbd619d9b986b44	0.11477074669566628
15	0x3fb02f4bf3a02aaa	0.06322169015781279
16	0xbf89fcbff3d97d41	-0.012689113263319231
17	0xbfa6779493a94ea2	-0.04388107588297642
18	0xbfb3bc7d77b58d8f	-0.07709488079631498
19	0x3faf14364b6979d7	0.060701080995147975
20	0x3fb2b87f439af46b	0.07312770271797013
21	0xbfcb315c1b84c64e	-0.21244384139713407
22	0xbfb73c10c49b3ee5	-0.09076027679406769
23	0x3fc8c8a75027e7ae	0.19362346090184474
24	0xbfdde98488338501	-0.4673777895059886
25	0x3fcacb02c3477e52	0.20932039771195093
26	0x3fccb67407ea9249	0.22431803118264984
27	0x3f86fb4eb5b15773	0.011221518440077216
28	0x3f820ac13b88aa35	0.008809575681046325
29	0x3f9a90570b79276c	0.025941238475105363
30	0xbfde3b97d6498966	-0.4723872749947503
31	0x3fcae11b8f2656af	0.20999474038824448
32	0x3fc8fb88ef3a3744	0.19517623597169564
33	0x3f8fc00af2e9234c	0.015503011262937648
34	0xbfcb2218b998d52b	-0.2119780451045384
35	0xbfbe8e0c94c23feb	-0.11935499793821662
36	0x3fa1aec06d95699b	0.034536374451550965
37	0xbfa6b6f4b7c402a7	-0.044364592964489184
38	0xbfc3ee668f09668f	-0.1557129095479479
39	0x3fcf671a83507923	0.24533397113641184
40	0x3fd587e33e0d82bc	0.33641892490235725
41	0x3f836f562f25fb5c	0.009489701570371593
42	0x3f691d2481b10b15	0.003065654088943668
43	0x3fa62b4f1c99b617	0.04329917167784119
44	0xbfcf5698eabf932b	-0.24483024084397562
45	0xbfcf67de634ddbb8	-0.2453573212512461
46	0xbfc1fda70a1eac65	-0.14055335992938747
47	0x3fb863da175f039c	0.09527361937126816
48	0xbfb90ad24bd80022	-0.09782137252477743
49	0xbfcf4befdf9eacbc	-0.24450491351067238
50	0x3fbe5d1c7f2b237c	0.11860826592159229
51	0x3fdb94b308accf7a	0.43095088812992055
52	0x3fc54757374c4945	0.16623964500520053
53	0xbfd327a8fdb90647	-0.2992956617127657
54	0x3fa1b9ab1eb224be	0.034619662758879496
55	0xbfd5b84efca9bb45	-0.3393743007099384
56	0x3fc016c655fd8678	0.12569503020045025
57	0x3fd0c04cb552320b	0.26173703868042314
58	0xbfbc9f2e06af1643	-0.11180389083082169
59	0xbfb468ce1888c5c1	-0.07972419833165302
60	0x3fb878f665e72122	0.09559574115622074
61	0x3fc18d21518a3d43	0.13711945039220028
62	0xbfd1f9fcb27216a2	-0.2808830015786531
63	0xbfc2703a6f6cbfb5	-0.14404993477500985
64	0xbfc759c35bd99573	-0.18242685303554715
65	0x3fe638b242e56fca	0.6944209391181115
66	0xbfb7df4de0f80a5c	-0.09325110189824087
67	0x3fd0917817a06a65	0.25887872988974997
68	0x3fd13fa3db1a8b44	0.26950928112835393
69	0x3fd14edd0e71e8ef	0.2704384461463993
70	0xbfd268c203de7dd7	-0.287643913057733
71	0xbfbf9714b7f7355d	-0.12339906207417557
72	0xbfbf40e593a8498f	-0.12208399634281462
73	0xbfaf193604265ce0	-0.06073921967179685
74	0x3fb48adb0f4f3ae1	0.08024376987234973
75	0xbfb721a7d07d9e69	-0.0903572925577635
76	0xbfd4c4ffdfa696ae	-0.3245238956536508
77	0xbfc33c314bc20e77	-0.15027443122027126
78	0xbfd7e6366b660e21	-0.3734260605635616
79	0xbfce251801c69ea7	-0.2355070122405227
80	0x3fd7798b654feeaa	0.3667934884431171
81	0xbf3d77ad9439359e	-0.00044963825005058823
82	0xbf898dfbfa833917	-0.012477844793832333
83	0x3fc134973542db55	0.13441743946688214
84	0xbfd54d2a75775a27	-0.3328348300105141
85	0xbfacd564afe2251f	-0.05631556174291518
86	0xbfd04033d76d7f91	-0.25391860998024024
87	0x3fbec34b188835eb	0.12016743992736394
88	0x3f994f8218406b16	0.024717362146570464
89	0xbfb778f44f6028b0	-0.09168936670190209
90	0x3fd1bfd2ff3f44d5	0.2773330204627887
91	0xbfbf0565a56fa759	-0.12117610253303947
92	0x3fb40406e48217c6	0.07818644598782418
93	0xbfcaea00b493363c	-0.21026619736805852
94	0x3f7624a501a4e871	0.0054060407222157195
95	0x3fc448c41f3db30d	0.15847064519348245
96	0xbfc4ac314cd047e8	-0.16150490046180654
97	0xbfaa5451c88c38e7	-0.05142455647556848
98	0xbfb5fa9be1ca30a5	-0.08585523855635076
99	0xbfa7f4e8d25557c5	-0.046790385890445964
100	0xbfb02d3f1683ff00	-0.06319040584275726
101	0xbfc75de57835a415	-0.18255298966985892
102	0xbfbfbfd4bbe3b102	-0.1240208586420444
103	0xbf971f7314f065fd	-0.02258090796758515
104	0xbfbe63006c8ac5e8	-0.11869814538911039
105	0x3fd5ae40307f1020	0.33876042114229854
106	0xbfbcb012785ca46b	-0.11206164778254084
107	0xbfb032f71ae2c60d	-0.06327766806023068
108	0xbfca915a5136be93	-0.20756081548232838
109	0x3faac695ec10c836	0.05229633814487082
110	0x3fc5d43ed0777abe	0.17053971461333178
111	0xbf54e014aec4c917	-0.001274128148975045
112	0x3fb413bf06af5094	0.0784263030357713
113	0xbfca9c4d3717edaf	-0.2078949469576918
114	0xbfe24e3dbc0bdba1	-0.5720509217052162
115	0xbfbcdf18f230a4d3	-0.11277919686166919
116	0xbfc2d5747cba4027	-0.14713913049900038
117	0xbfc892f920770b39	-0.19198526463704882
118	0xbfc12a22507c388c	-0.1340983288759542
119	0xbfca2fcb0b1e47e9	-0.2045835308350086
120	0xbf736b92bbbddb5a	-0.004741261651239304
121	0x3fc23f6f3cd80a89	0.14256086798566894
122	0x3fc46b95bdb948b6	0.15953323139053105
123	0xbf840fea5e3904ec	-0.009795981407594266
124	0xbf91186d7cc26bce	-0.016694746722901325
125	0xbfbd91100fd6c140	-0.11549473177615699
126	0xbfcb06af53ff2ac5	-0.21114150620845443
127	0xbfc00f53c439abb2	-0.1254677494174224
128	0x3fc4865b9c437bda	0.16035027628001225
129	0xbfba6f9e5513159a	-0.10326566292777387
130	0x3f6f9aeabadffc1a	0.0038580498285223476
131	0xbf49d50f9caeb808	-0.0007883383017224252
132	0xbfd42a319a9fc028	-0.3150753030777218
133	0x3fc9c16f069d432c	0.20121562788929148
134	0xbfb66a6a3c2f50cb	-0.0875612637458431
135	0xbf8386a6447f33eb	-0.00953416725669772
136	0xbfae6cce808f3e61	-0.05942387885408774
137	0x3fd0e984b9bce8fb	0.2642528356406186
138	0xbfc98f3aee7872cb	-0.1996835388571497
139	0xbfaafb5bea51dad2	-0.052698967317089576
140	0xbfd184bfe190ccaf	-0.27372738864796536
141	0x3fc98eb52a4c7623	0.19966759267201536
142	0xbfbf9e3159a35100	-0.12350758016993169
143	0xbfc6e4dead9d62ad	-0.17885955312046545
144	0x3fc518317a17b017	0.164800819983953
145	0x3fd368636f35ca48	0.3032463632618243
146	0xbfdcd3a04474bb0d	-0.450416628696005
147	0x3f975f6455813077	0.022824828833379187
148	0x3f6baf3ef9584f1a	0.0033794622384081376
149	0x3fc28424729affe7	0.14465766521425324
150	0xbfd120ef3e8c6132	-0.26763516529310316
151	0xbfc7107cfaf2a99c	-0.1801906800586267
152	0xbfbefe2e8d61c660	-0.12106600715358118
153	0x3fb48aeff92153fc	0.08024501640586829
154	0x3fd7a0155f38e699	0.3691457204728095
155	0xbfc46b0e2be9de85	-0.1595170702382697
156	0xbf96d04bc23188a5	-0.02227896092188843
157	0xbf9a343bd135b65e	-0.025589880603936847
158	0xbfd408e11e6bc949	-0.31304195376209926
159	0xbfc3255323ee595c	-0.14957656149335719
160	0xbfd5f4f01f9c15d3	-0.343074828022819
161	0xbfd25c56552799e4	-0.28688581767928967
162	0x3fbe41777e9afb09	0.11818644371940591
163	0x3fd5e87c709dc524	0.34231482503590116
164	0xbfe9de5a17eba014	-0.8083925692744764
165	0x3fe0b7acb75f8493	0.5224212247377572
166	0xbfd838d714b7454b	-0.37846924803769316
167	0x3f711d346e31d0f4	0.004178242498813701
168	0x3fd5645fa58f298b	0.3342513195790608
169	0xbfb1d874de84eae5	-0.06970911438558465
170	0xbfe2efcacf0886f0	-0.5917715114230457
171	0x3fc807a6e4e09e3a	0.18773351836829183
172	0x3fe2d359ae102c8f	0.5882995986625178
173	0xbfbb47822af64318	-0.1065598826301194
174	0x3fa99636ebba9922	0.04997417094755209
175	0x3fbdae63566e6e67	0.11594220028057976
176	0x3fcb8de6166ff586	0.21526790710042237
177	0xbfb6c487e6e78160	-0.08893632304489563
178	0xbfce083332fc9a80	-0.23462524404131457
179	0xbfdb8231e8033655	-0.42982146890139933
180	0xbfccc449fecbba19	-0.22474026623918134
181	0x3fd0d8b352dd4645	0.2632263478491022
182	0x3fdc6f1265d30eb0	0.4442792887095761
183	0xbfb88be0bcd359c5	-0.0958843670845005
184	0xbf9919df2fc25d21	-0.024512755670540124
185	0x3fd68092165fd126	0.35159732995022563
186	0xbfd00035c0143760	-0.2500128150721732
187	0xbfe45a226727cb69	-0.6360027327303729
188	0x3fdaa077c9e29660	0.41604418483107075
189	0xbfc6e9db8cbfba35	-0.1790117680788669
190	0x3fd560a913357bd1	0.3340246856295695
191	0xbfe449156b5a833a	-0.6339213463544191
192	0xbfbee0f3471f23a5	-0.12061996923797709
193	0x3f7097320fdb08a1	0.00405044131702162
194	0x3fbd96e58dee5db0	0.1155837508689419
195	0xbfc2b365ab3d433f	-0.14609976636213592
196	0x3fc468336487e0cc	0.15942995461205667
197	0x3fd138302f23cb16	0.26905445674417316
198	0x3fceb794ab4640d0	0.23997743952759842
199	0x3fc17b84630f77ef	0.13658194386420017
200	0x3fcfac423160af9f	0.24744441424388428
201	0xbfbe7ab0d0e9ba51	-0.11905961132445354
202	0x3fd9f506964c9631	0.40558018376973154
203	0xbfb146d966c9b29f	-0.06748732337445994
204	0xbfdcb18dcd30397a	-0.4483370307724709
205	0x3fe46081048c00d4	0.6367802704626464
206	0x3fdced25ef314ce8	0.45197437628412596
207	0x3fd1b1aafbc9b41a	0.27646898831045663
208	0xbfd6d41efa6585a1	-0.35669683888235154
209	0x3fd217e1c3928f68	0.28270763491513273
210	0x3fd2b4893f86d324	0.29226905063414876
211	0xbf92aa7309cf9308	-0.01822833773975943
212	0xbfcb863fce3864ca	-0.21503446168279644
213	0x3fb443ad99ed9aa8	0.07915768630992182
214	0xbf9362e77ec2964f	-0.018931977378676298
215	0xbface3282472a1bf	-0.05642056889456936
216	0xbf942519b59e1030	-0.019672776899384015
217	0xbfd33d475f4320da	-0.30061516097022223
218	0x3fd84fd7edfba5ee	0.3798732589771977
219	0x3fd6e8611c8eea4b	0.35793330944912743
220	0xbfafccd78970bfa8	-0.0621096949838596
221	0xbfcd6d8476ad28ee	-0.2299047069048536
222	0xbfdbe15832ab22f8	-0.435628938179931
223	0x3fe31b11b750aecb	0.5970543461202963
224	0x3fd27f00903a6dac	0.28900159916676205
225	0x3fb0d5687df29955	0.06575635027784206
226	0xbfd67bb84a188434	-0.3513012622443654
227	0x3fcd642e44ade6ea	0.22961977342111278
228	0xbfb9e4ffd5f3f0b6	-0.10115050290545721
229	0x3faddc82047f58ca	0.05832296662235732
230	0x3fd4cba6a8564d37	0.32492987097903686
231	0xbfee59d331ac3ce6	-0.9484649629756887
232	0xbfd9d6c535c611d8	-0.40373354197825284
233	0x3fd892e59751d4a3	0.38396587159452106
234	0xbfd3f896d38782e9	-0.31204767853891596
235	0xbfb54f8292272ca3	-0.08324447696866115
236	0x3fe5844f55c762b1	0.6724011111610563
237	0x3fe3d1a017fdc126	0.6193390339449578
238	0xbfa6a687d821c360	-0.04423927796677307
239	0x3fd07003a211ecc7	0.25683680369520484
240	0x3fcdc21e84db4fc2	0.23248654830115184
241	0x3fca81cba5a3ea0b	0.20708604419617446
242	0xbfa4d73ae209575a	-0.04070457467302786
243	0xbfd04604fc3c1a99	-0.2542736495237619
244	0x3fcae46c55409580	0.2100959221144585
245	0xbfc5e7a5d449da4f	-0.1711318289341812
246	0xbfb93bd728bfd2dc	-0.09856934304100257
247	0x3fc82adb357c6043	0.18880787002194852
248	0x3fd62aaa0924fb1e	0.34635401623738626
249	0x3fcd6c478434e375	0.22986692386055166
250	0xbfc769352c054e82	-0.1828981842942206
251	0xbf8ca4e19ae51ac3	-0.013986361064451619
252	0x3fa771e531d8f771	0.045790827116873774
253	0xbfb5ab726e217c1c	-0.08464732350101695
254	0x3fb2e4698c39b6d1	0.07379779504273222
255	0x3fe53ad0379c3378	0.6634293638359017

rnn.bias_ih_l0 f8 [80]
0	0x3fbab8334b261fe2	0.10437317452135589
1	0x3fc6c029576ef6c2	0.17773930329524573
2	0x3fc9de24f73fe784	0.20209180901275314
3	0xbfc16113526510e0	-0.13577500842268986
4	0xbfe7e08d5d169b8c	-0.7461611574297975
5	0x3fb3d4f49ee3d9c0	0.0774681938090458
6	0xbfd55d5f5d2b22c2	-0.3338240060661911
7	0xbfbbdbad80e7d3f2	-0.10882076642140229
8	0x3fc35ae48b88a6b2	0.15121132672475351
9	0xbfd7a19cde914c2e	-0.3692390607367909
10	0x3fc515f5a18da34f	0.16473265064567008
11	0xbfcf119f1b4e1487	-0.24272526582004536
12	0xbfbf13597ce5e99c	-0.12138900088567656
13	0x3fe3dcce8a970e83	0.6207039553487025
14	0x3f9c15231d51bf13	0.027424381889829052
15	0x3fc6c404196c7f17	0.17785693398854427
16	0x3fb1962da2f1fdd3	0.06869778850704415
17	0x3fe22b87da208298	0.5678138027470423
18	0xbfdb60e67ecd8d8a	-0.4277893293676348
19	0xbfd3704ff6c7a5e2	-0.3037300023994175
20	0x3fb621a6857e9395	0.08645096549169147
21	0xbfc7d98965183c9e	-0.18632619320166993
22	0x3f90c2be5ca23bbb	0.016367887882150472
23	0x3fd7a650420e6e4b	0.3695259709436171
24	0xbfde60cc27ac23e2	-0.4746580493379594
25	0x3fe648c1c2a702ea	0.6963814546398599
26	0xbfc045d1d548f38b	-0.12713072695069302
27	0xbfc19d41cce3c2bc	-0.13761160377864268
28	0xbfd39c1c0b84394c	-0.3064031708207906
29	0xbfb7104ba7535c2a	-0.09009239993189114
30	0x3f9ed41fc725af01	0.030106064348202292
31	0x3fdae672770e3657	0.4203153765346079
32	0xbfdcd75bccd563c2	-0.4506444454505606
33	0x3fde13250f7ebee9	0.4699185038871137
34	0xbfe5b2bfe892308d	-0.6780700247195611
35	0xbfca26997d22a16a	-0.20430296526070474
36	0x3fd666b9502f7479	0.35001976805307994
37	0xbfd0b97daa77fd0e	-0.261321464989991
38	0x3fcfff86793c2a18	0.24998551292112903
39	0x3fc449e32a9c09bc	0.1585048635534586
40	0x3fd99ba29b1a78cc	0.4001242174798676
41	0xbf9a5bc7af78b253	-0.025740737996033335
42	0xbfe304a4442bcc47	-0.5943166095224875
43	0xbfcf4c5a628317d2	-0.2445176106468226
44	0xbf9b2b2f49055f9e	-0.026531924087379026
45	0xbfc4aff24319adff	-0.1616194560659636
46	0xbfddbec968a277bb	-0.4647696992705012
47	0xbfc24b999081c5b6	-0.1429321246719561
48	0x3fc8d362f10da1f4	0.19395100374391883
49	0xbfb81385d5fdb90e	-0.09404789423362933
50	0xbfa8e43af49dfdc5	-0.04861625896500813
51	0xbf928f89e19ab073	-0.018125681299963902
52	0xbfa4a6bb5c43fe44	-0.040334563267603346
53	0x3fe94210bdb7360f	0.7893146233925011
54	0x3f5cd79e86be741b	0.0017603920086692929
55	0xbfb985e0d48138cf	-0.09969906986336528
56	0xbfd4fb96d2818717	-0.3278557830545749
57	0x3fd21991f3c7a014	0.282810676637838
58	0xbfd9c9e2778eb224	-0.40294706035163785
59	0x3fa4d979003ca0cd	0.04072168472186064
60	0xbfcc297d4aa03508	-0.22001615661466922
61	0x3fe00b7f79331a82	0.5014035575084821
62	0xbfe6ede2aa81a679	-0.7165387468532592
63	0xbfe0ac714816f058	-0.5210501106262297
64	0x3fd60a92e018ce54	0.34439536938154913
65	0x3fe36b025b6df85c	0.6068126474126632
66	0xbfcc6b23bb966b26	-0.22201964053677975
67	0x3fc93b0d9abd0b31	0.19711465888584592
68	0x3fc4363ee54d6cc9	0.1579054469719721
69	0xbfb4ccfb5c59bb8a	-0.08125277523661914
70	0xbfe5956aa464aed3	-0.6744893275076386
71	0x3f7d7a6f56d122f6	0.007196841162177439
72	0x3fd4d85f521f4de7	0.32570631999735017
73	0xbfd3c84783c2ad2d	-0.30909908168060235
74	0x3fdb21b9eabe1614	0.42393348621439597
75	0xbfca1ea5764497d9	-0.204060251949328
76	0x3fd441f9887c948a	0.3165267784955367
77	0x3f9e8b76a0b5db1e	0.029828885611517746
78	0x3fbfecd74eb3ca99	0.12470765754168624
79	0xbfc7b526693c1350	-0.18521576059733968

rnn.bias_hh_l0 f8 [80]
0	0x3fb600928b261fc2	0.0859462346762703
1	0x3fc92e88176ef704	0.1967325319691825
2	0x3fb860cf4e7fcfcb	0.09522720018850277
3	0xbf8b29cb2651192e	-0.013263308626971861
4	0xbfe7eb0245169b9d	-0.7474376057988256
5	0xbf78d0ac11c26fc8	-0.006058380266178838
6	0xbfd9ec65cd2b22fa	-0.4050535682295472
7	0xbfa13b4ec1cfa78a	-0.033655606421077414
8	0x3f934bc95c453a30	0.018843790299167107
9	0xbfd96519ae914c56	-0.39679567382444725
10	0x3fb53192231b478c	0.08278764111608278
11	0xbfbe464a369c2915	-0.11826003869297026
12	0xbfba24177ce5ea12	-0.10211321639318552
13	0x3fe745c100970e9f	0.7272648822331184
14	0x3fb4f9c167546fe8	0.08193596623135557
15	0x3faf4b4545b1fbb5	0.06112114406368311
16	0xbfb59ebdbd0e02b2	-0.0844534479674717
17	0x3fdd37e39441055f	0.45653619268349205
18	0xbfe3de8fdf66c69c	-0.6209182132062838
19	0xbfd3bfca56c7a604	-0.30858095621678694
20	0x3fb74037e57e933b	0.09082364418879944
21	0xbfc14cedc5183c88	-0.13516018031848298
22	0x3faa16c62e512098	0.0509550029315175
23	0x3fd64140fa0e6e49	0.3477327768284551
24	0xbfdcca73d3ac240a	-0.4498567168344044
25	0x3fe3e6e88ea702b4	0.6219370638064761
26	0xbfa28fb5d523caba	-0.036252672451060744
27	0xbfb54dd8b9c78537	-0.08321909461621578
28	0xbfd696641384396c	-0.3529291334715683
29	0xbfc3366983a9ae2f	-0.15009802750442833
30	0x3fc3bcaca8e4b6ca	0.15419538733242738
31	0x3fd6c06d470e3697	0.35549480380073234
32	0xbfd781e40cd56464	-0.3673029065444722
33	0x3fd6ba3d3f7ebf59	0.35511714173025194
34	0xbfe36413b892310b	-0.605966434946397
35	0xbfc1ff58ad22a130	-0.14060505346174912
36	0x3fc44a55805ee899	0.1585184933481443
37	0xbfd5a7240a77fd23	-0.33832646391234017
38	0x3fd5bd5d449e14f0	0.3396828813641397
39	0xbf749010ac7eb9bc	-0.005020203716340207
40	0x3fdf4b228b1a78f4	0.4889608725005836
41	0x3fc39ff4ba10ea65	0.15331896863229413
42	0xbfe16fc5282bcc2b	-0.544893816432141
43	0xbfcaee14f283181c	-0.21039068070803146
44	0x3fac931a1b7d5153	0.0558097990566774
45	0x3f6a44fb39949a7e	0.0032067209946434186
46	0xbfdee3ab48a277db	-0.48264581769205755
47	0xbfbd766aa1038b25	-0.11508814269067764
48	0x3fd76c78c886d15f	0.3659955938594716
49	0x3f98428d28091ef5	0.023691373413639878
50	0x3fa671b28b62013b	0.04383619262171342
51	0x3f8f5ec33cca9c04	0.015317464153964629
52	0x3fa4d7f9e3bc0467	0.04071026711427166
53	0x3fe4bfb709b73699	0.6484027089843095
54	0xbfc4235a62f282a3	-0.1573288901463644
55	0xbfc94bf9aa409d48	-0.19763108075242486
56	0xbfe14b63e540c35e	-0.5404529073331152
57	0x3fcb120a578f3f4d	0.21148804927224277
58	0xbfd28a0b4f8eb255	-0.28967554826048075
59	0x3fa1535d803ca0b5	0.033839151290807314
60	0xbfcd72fe7aa03528	-0.23007184016788895
61	0x3fdc12cfca663517	0.4386481739573624
62	0xbfe926720881a6ab	-0.7859430471555319
63	0xbfe17cf88416f06c	-0.5465052204012983
64	0x3fcd5ae0c0319cce	0.22933587440932118
65	0x3fe3c73e4b6df822	0.6180716965898265
66	0xbfd59ffdadcb3596	-0.3378900716023393
67	0x3fd1a467ed5e859c	0.27565954380596636
68	0xbf7bfb87565265c4	-0.006831673298756728
69	0xbfa6df3078b3782c	-0.04467154954339522
70	0xbfe2fff4f264aeed	-0.5937447294467951
71	0x3fc7d8c03ab689d1	0.18630221239898373
72	0x3fd6be6b921f4e1d	0.35537232656244716
73	0xbfd73ce29fc2ade7	-0.3630911407624055
74	0x3fd92d3a4abe1620	0.3933854799182388
75	0xbfcbcbb296449821	-0.21715385758688036
76	0x3fd60be6187c94c8	0.34447624579690883
77	0x3fc3ab7ee416bbae	0.15367113244198322
78	0xbf903f134530d6bd	-0.015865613077230323
79	0xbfc79e4d493c1340	-0.18451849056159553

FC_1.weight f8 [50, 320]
0	0x3fa2e2d2c5d9a1b8	0.03688677468454976
1	0x3fb105e8781426ce	0.06649640018090539
2	0x3f849a828af1f0c4	0.010060329308764777
3	0xbf87a1a0b83c567f	-0.011538749334742747
4	0x3fb40d3c9dd86405	0.07832697728771627
5	0x3f7298cc61a78f1c	0.004540251126375041
6	0x3fa77178e47dabb7	0.045787599460559596
7	0x3fb90a8d9aed4683	0.0978172782172582
8	0xbfb009393fdfca48	-0.06264074143818121
9	0x3f8715aeaed4492a	0.011271824560513528
10	0x3fc306663d4bdf91	0.14863279335963545
11	0x3fb64b9b6b3833eb	0.08709117286362271
12	0xbfa52d37127a9f59	-0.0413605890328756
13	0x3f92c6a69f8ecd0c	0.018335917938839194
14	0x3faf441ca54e8a31	0.06106652753739573
15	0x3fb1a6b541bddce4	0.06895001273175044
16	0x3fa428fb9fe48e52	0.03937517477814069
17	0x3fa0c8749540a2a7	0.032779353350922684
18	0x3fb1a88131f81325	0.06897742719600027
19	0x3fa9475ae81542c3	0.04937252123875659
20	0xbf8f51101986e09a	-0.015291333941476904
21	0xbfbac41374df5323	-0.10455438235596808
22	0xbf93bf654ef2cbb4	-0.01928480429041786
23	0x3f9ccc881595226e	0.02812397605638
24	0x3fafb189fa48db3f	0.06190138988716009
25	0xbfa46f39f56d280b	-0.03991109009673729
26	0x3fae3a1869d7ca35	0.05903698246028847
27	0x3fa34773badff63d	0.03765451103388926
28	0x3fa3a89841b717f7	0.038395650884510184
29	0x3f9ba6b42bab1090	0.02700311199693367
30	0xbf9eb5db3b5b7eb0	-0.029990602014435097
31	0x3f8a34d40e1242ef	0.012796074561522512
32	0x3f57dcdc11c38ece	0.0014564656367434428
33	0x3fb4564df020d4db	0.07944190132623723
34	0x3f9b630781ac864f	0.026744954385441052
35	0x3fabed4d64d951c9	0.05454484802308774
36	0xbf87cd7365e6aaf4	-0.011622335002205976
37	0xbfadfe20798b4857	-0.05857945903484623
38	0x3faa59c7a0aa76d5	0.05146621547940603
39	0xbf854b290934a065	-0.01039726313918283
40	0x3f89474dee5d69ab	0.012343033634967101
41	0xbf7bccd12c12f9ff	-0.006787125662582215
42	0xbf7c6b5b01b4acc3	-0.00693831967809472
43	0x3fa757b284618840	0.04559095254877876
44	0x3f90aff78ec349f4	0.016296260918190655
45	0xbfa0f7ce7fb218e9	-0.033140614593365765
46	0x3fad37339f052bfc	0.05706178013004856
47	0xbfae7dbedc372791	-0.0595531123941121
48	0x3fb070855dc70708	0.06421693362701941
49	0xbfa5abb03ef48e41	-0.042325504002544985
50	0xbf9fc6bae2e1796c	-0.031031532380774093
51	0xbf9c6984bfe2d9d4	-0.027746271335411368
52	0x3fa3bc4e011d2979	0.038546025882697905
53	0x3f9693978ffb27dd	0.022047393954188855
54	0x3fb5ec2a580cb300	0.08563484811447708
55	0x3f97cf2bf3fba2c4	0.02325123478559267
56	0x3fa9371ad3449475	0.04924854115442027
57	0x3f99d8f18ee2d2b5	0.025241636606284163
58	0x3f50c47af5421719	0.0010234070551020157
59	0xbfa9f19deabde3ab	-0.050671515374183095
60	0x3fa74705e0e741d4	0.04546373720552635
61	0xbfbcde995253b3c7	-0.11277158985076517
62	0x3f953c14c931db91	0.020737004070237545
63	0xbf89ad8024a9890c	-0.012537957304804802
64	0xbf931b6dbec47cba	-0.018659319656873598
65	0x3fa862466a849bc6	0.04762477922695711
66	0xbf833e003227b77d	-0.00939560082494117
67	0xbf77ac0ffb1c165c	-0.005779325890903655
68	0xbf8051e3b3c62ab7	-0.007968691753167929
69	0xbfc0278095ad238a	-0.126205514034407
70	0xbfb572616027e921	-0.08377655599170854
71	0x3fbd831d0f06afd0	0.11528188340042722
72	0x3fa3a3a8d2e572f0	0.03835799765031378
73	0x3f7f642b76508c54	0.007663888715828088
74	0xbf6144e5bc1a1e4e	-0.002108048153619347
75	0x3fa959ac4c32acd2	0.04951227598334075
76	0xbfbc440eb2f83c86	-0.11041347379090113
77	0xbf8236917109436c	-0.008893142950144393
78	0x3f9674002e5725dd	0.02192688258018004
79	0xbfa1fff37fefc743	-0.03515587746359341
80	0x3f7eb114c137c23f	0.007493096421499034
81	0xbf8524335bc9302f	-0.010322953451712717
82	0xbfb9ab6243052f99	-0.10027135978924519
83	0x3f9822d9bf1d3dc4	0.023570444383322245
84	0x3f9be0876c82474f	0.02722369766031046
85	0xbf920b22d6591b13	-0.017620605786102205
86	0x3f958eb7460a69c2	0.021052230501121157
87	0xbf92853ea263e4da	-0.018086413060676466
88	0xbfa09e9aa0015bea	-0.03246005252065472
89	0x3faaab43e52cd035	0.05208789989993116
90	0x3fa7f9702f46557b	0.046824937601892956
91	0xbfa3c7ef7a4922a6	-0.03863476150269678
92	0xbfb2b51124398c5d	-0.07307536253351672
93	0xbfa4d92b583b5f39	-0.040719370384691485
94	0x3fb1d9e8dafe397f	0.06973128649244663
95	0xbfbfba82d33dad6d	-0.12393968255280692
96	0xbf8ce10e476795e3	-0.01410113482865944
97	0x3f983f7fe9beaa2f	0.023679731980943138
98	0xbfae0785c1e793dc	-0.058651142044062715
99	0x3f9f7ed993f3abf9	0.030757331519378515
100	0xbfb7df031e0b1376	-0.09324664576986472
101	0xbf976e6aec10a97c	-0.022882147463101785
102	0xbfa9df45210d5d05	-0.05053154018849607
103	0xbf9b08514f8b3865	-0.026398916702241943
104	0x3fbf9684471318bc	0.12339045272082932
105	0xbf9e35fcb5b3f3dd	-0.029502819624202082
106	0xbfaa9d1879c4261b	-0.051979794372595665
107	0xbfb7d94f5cb0413a	-0.09315963757422177
108	0x3fada6f08f28a298	0.05791427371543029
109	0x3fa1d2de1b14231d	0.03481191711950358
110	0xbfb753188e942e64	-0.09111169320038354
111	0x3fb404e396f227b2	0.0781996005554493
112	0xbfb00b8be6b64273	-0.06267618544212343
113	0xbfadac524f50c03c	-0.05795533388334248
114	0xbf9fd6643dc1d45b	-0.03109127642570218
115	0x3fb42c1195010d05	0.07879743469043284
116	0x3f93d6f72d9d12ac	0.019374715956717622
117	0xbfb37a54ddf98963	-0.07608538073831066
118	0xbf9ce3b4c2d352ec	-0.02821237982864748
119	0x3f8a894074186144	0.012957099478669527
120	0x3f7db0b446bc87d2	0.00724859638629201
121	0x3f9435dd692b8552	0.01973672823340184
122	0xbf9a443807f19938	-0.025650859341476123
123	0x3fa3024371629ec7	0.03712664374444113
124	0xbf94b16bd2c38d59	-0.020208058108335567
125	0x3f8f2a41c6e953dd	0.015217317469401631
126	0x3fb2964d9e254e06	0.0726059447381929
127	0x3f7215b7da69971c	0.0044152433170887816
128	0xbfa811109a07ccae	-0.04700519447569583
129	0xbfb086576e861370	-0.0645498890717826
130	0xbfb0f908c13d09a4	-0.06629996030554836
131	0x3fb1f00fc6a2baaa	0.07006929969314038
132	0x3fa9a32b9cdb953e	0.0500730160691014
133	0xbfc6193a3b5577a5	-0.17264488122139912
134	0xbf97516cbdadbc04	-0.02277154834467511
135	0x3f9746689a380a8f	0.022729525006079995
136	0x3f7957dfc41ff6d0	0.006187318884256235
137	0x3fa5ad6aa6196acd	0.04233868863658117
138	0xbfb5a3a3045ea4fe	-0.08452814919168714
139	0x3f97a49ba22c8907	0.02308886697131476
140	0x3f473fec99cd41cb	0.0007095246579443213
141	0x3f7bff2520542a74	0.006835122131870198
142	0xbfb1bb7f5b9b4c5e	-0.06926723467340554
143	0x3f95bffbcf157fbb	0.021240171923068134
144	0x3f8ab4c1eb44e95a	0.013040080063195948
145	0xbf76da470d1392da	-0.005579259436875284
146	0x3fbb6ec41fb2b3ea	0.10715890668753017
147	0x3f9441ee59b0666c	0.019782757019220318
148	0x3f8d167ac65a3cb8	0.01420303266357191
149	0x3fa6f1f4c6f9ac2f	0.04481472901246552
150	0xbf94ba7183b2db01	-0.020242475188491763
151	0xbfb01c06bff52aa6	-0.06292764841524931
152	0xbf939f14a98afddc	-0.019161532257155986
153	0xbfa3ec2aefd97b3c	-0.03891119172907628
154	0x3f98947c1e876052	0.02400392471631136
155	0xbfa78b3493a3d5cf	-0.04598392774816384
156	0xbf9983a716306ff0	-0.024916277627298145
157	0xbfb159245352dcdd	-0.06776644739408107
158	0xbfaae99ce292016c	-0.0525635744643321
159	0xbfb1f07ef5395d78	-0.07007592665592266
160	0x3fb56c93571c5147	0.08368798138355259
161	0x3fb518f0c70fc1af	0.0824118123998747
162	0xbf6abe7afcd30166	-0.0032646562673052546
163	0x3f8155af485e30dc	0.008464211841577578
164	0x3fbefef68b1e0803	0.12107792755526252
165	0x3faa56d6a210824f	0.051443774493468035
166	0x3f895bfcc6f9342b	0.012382483312785983
167	0x3f8ca0614608b157	0.013977775525824283
168	0x3f7af06f9843cf1c	0.006576953808906241
169	0x3f544709de02474d	0.0012376400336830573
170	0x3f9c011d7702c025	0.0273480037582773
171	0xbfbc540922494b17	-0.11065728270595475
172	0xbfaaa77a5f9c9734	-0.0520590059007148
173	0x3faafc2d246242d4	0.05270520276201798
174	0x3fb3c8ec481de7a4	0.07728459129967163
175	0xbf94d87c4d37473a	-0.02035707684792174
176	0x3fb315e43ef2313e	0.07455278908509386
177	0x3fb1378ddec35ddd	0.06725393951943866
178	0xbfb5222f03ebc058	-0.08255285115933597
179	0xbfae78f79788f23d	-0.0595166561583693
180	0xbf8d4de3d01de8a3	-0.014308719433519029
181	0xbfb3ef8c35ccbf7e	-0.0778739577624474
182	0xbfc3da55ceb81473	-0.15510056108192635
183	0x3f6f2c1fbbd41e73	0.0038052196310934205
184	0xbfacdb4718e68f3c	-0.056360456266047326
185	0xbfabd22a77c8c2e9	-0.05433781349382178
186	0x3fa7eb9f34ea0a75	0.046719527444129584
187	0x3fbfa93f6c1d19b2	0.1236762656163595
188	0x3fa0793fbe8d7bf8	0.03217505646784241
189	0xbf9d393a998c8ef3	-0.028538623449221267
190	0xbfa6606cbcc40fa5	-0.043704412501056646
191	0xbfa8e96dc66503dc	-0.04865592047509157
192	0xbfb70e573b20de2a	-0.09006257241787155
193	0x3fa740d20a570458	0.04541641594142537
194	0xbfa1dad69ba6efdc	-0.034872728825092486
195	0x3fbc2c841a4b4579	0.110054260653916
196	0xbf8de2a1fdae7e7e	-0.014592423967598519
197	0x3f9eaa669e5659a3	0.029946902670042196
198	0x3fa33a1287a91f76	0.03755243211759211
199	0x3f7bda4da9c2af29	0.006799987193669734
200	0x3f9b89ee727e1124	0.026893354166092412
201	0x3fa57df94b4cacde	0.041976728860697796
202	0xbfc2a9be0ef44074	-0.14580512743168905
203	0x3fa037902149b6e0	0.031673912108869606
204	0xbfa30180e521e634	-0.03712084576632116
205	0xbfb45fb3f742545a	-0.0795853117618476
206	0xbfa0e73488aa1bf0	-0.033013955767323355
207	0xbf9b8f5c68599bd1	-0.026914066189785594
208	0x3fc39c1c17f99ddc	0.15320159121186705
209	0x3fbf659be358f121	0.12264417934870099
210	0x3f6562e6a251f02c	0.0026106361934221858
211	0x3fa2b2ba8e6d9fc6	0.03651984203935359
212	0x3fb4c733c5fbafd0	0.08116458495686563
213	0xbf71277238c4ac06	-0.004188009432520628
214	0x3f92eb4b7b729169	0.018475703630103455
215	0x3fb3285e2bea542c	0.07483471462394736
216	0x3fac0d0ab1285d49	0.05478700077599769
217	0x3faa42aa631771dc	0.05128986796964671
218	0xbfa12912e09963a6	-0.033516492764369674
219	0x3fb0fa927d70e94b	0.0663234287502849
220	0xbfa17ae69b663080	-0.034140783757806936
221	0xbf7d0b8d42fdc5eb	-0.0070910947832642885
222	0x3fb980dcf3d52ffc	0.09962254479358984
223	0x3fab1ed7357ef15c	0.05296967056298982
224	0xbf9678a9cdd46095	-0.02194466894897625
225	0xbfa5886c1ec1a886	-0.04205644488759312
226	0xbfb3879a85d3a01e	-0.07628789679768075
227	0x3f8117a06db958ff	0.008345845554839302
228	0x3fa021990a4c7e00	0.031506330973794405
229	0xbfb6989245afe005	-0.08826555444090907
230	0x3f4750e90c9fda18	0.0007115495620826943
231	0xbf9b8729136ac6bd	-0.026882783708692005
232	0x3faa91f2e71f993a	0.05189475127535777
233	0xbf96c60250e68239	-0.022239719569940617
234	0xbf9bf820d9c7eff4	-0.027313721935556104
235	0xbfb2f5c7c235a4f8	-0.07406280986255698
236	0x3f93e0b6c2d39fbc	0.019411903039241216
237	0xbf8f6531c337e6b3	-0.015329731721965478
238	0x3f9cef145c3d85ee	0.028255766038801804
239	0xbf83a1721c6e78a8	-0.009585277073537249
240	0x3fbc88e264d43439	0.11146368943828201
241	0x3fa914321c0ed973	0.048982206273126126
242	0xbfb3acd91458351c	-0.07685620066350335
243	0xbf9a5cea929321c1	-0.025745072551929263
244	0x3fa0fc37c52cef94	0.03317426950385918
245	0x3fa8e101ffc5fde9	0.04859167334779697
246	0x3f5bce2922b10121	0.0016971017564771445
247	0xbfaa8a816de9dddd	-0.05183796374052083
248	0xbfa85d5e529752e6	-0.04758734472458119
249	0x3fb8d9b33d1c52f3	0.0970718406864071
250	0xbfac4eb68e185fa1	-0.05528803333817157
251	0xbfadef1fe49b8f90	-0.058465000778397
252	0xbf8a271acf7ee375	-0.012769898850693665
253	0xbfb120560d22b093	-0.06689966030779919
254	0x3fb726c224c56654	0.0904351558468986
255	0xbfacd6c69dcefa05	-0.05632610966084787

FC_1.bias f8 [50]
0	0xbffa29acb813890d	-1.6351744833451136
1	0x3fcf3fb0ff3ea60a	0.24413120711442132
2	0x3fe1326163e998f1	0.5373999549308605
3	0xbff90b09c09dd7b9	-1.565194847496498
4	0xbfe1ac3a2bd1fa5a	-0.5522738319267078
5	0xbff2a415f0cf05df	-1.1650599867428963
6	0xc0042b9e588df077	-2.5212981146160547
7	0xc0014e5962973c14	-2.1632564260867273
8	0xc005faccbda23462	-2.7474608245016023
9	0xbfed5545323fb71c	-0.9166589719222631
10	0x3fd4d17968d52e58	0.3252852939374171
11	0xbff1782e956a3761	-1.09184130063246
12	0xbffad97d27eba9f2	-1.6780978736302328
13	0x3fd97cb0a50d067b	0.3982354747605325
14	0xbffa30b4c58d27e8	-1.6368911473132304
15	0xbffa097829dd951b	-1.62731186250432
16	0xbff3f1690fb60764	-1.2464380849564458
17	0xbffbfe44ff767914	-1.7495775202765502
18	0xbffac33de42812c6	-1.6726664459576326
19	0x3fe1e3af31a93628	0.5590434999409739
20	0xbff993877e6e2964	-1.598517888897356
21	0xbff8dc9943c5937f	-1.5538571021399716
22	0xc007501d77913737	-2.914118703955775
23	0x3fe8a2b19bd0f3ad	0.769860081032325
24	0xbff9373a25faaef2	-1.575983188969016
25	0xbfe52c555e39083e	-0.6616618004120551
26	0xbff1fc5821bd0fe3	-1.1241074865256386
27	0x3fe7350b2f0c2da3	0.7252250594041708
28	0xbff7244b38b979e3	-1.44636079938902
29	0xbffae16fac0c38c6	-1.6800381394019026
30	0x3feafbfed4d9fcad	0.8432611615425195
31	0xbfe1bd4f60b38879	-0.5543591393182076
32	0x3fe6ad88908cc861	0.7086832831612463
33	0x3fda7c41e081d85c	0.41383406567127223
34	0xbff30ccdf323b53b	-1.1906260965000246
35	0x3fd77bd61d8b074c	0.36693337330881515
36	0xbffb0df737b562e0	-1.6909095932116358
37	0xc0033f2fed72101e	-2.4058531332430126
38	0xc002a0e98bf51527	-2.3285704549949915
39	0xbffbd9563bc62883	-1.7405607542919206
40	0xbff84070c700ee9c	-1.5157325528697703
41	0x3fc2d7958f810feb	0.1472041083053449
42	0xbff90ebf1777cd75	-1.5661002079694673
43	0xbff9d1e4b2dcce60	-1.6137434946839662
44	0xc00703839fe5c631	-2.8767158977505223
45	0xbfe33184a1ea9628	-0.5997946894100936
46	0xbffc85a8e2a3bb87	-1.7826317647083856
47	0xbff1e2530b5c451c	-1.1177549785391596
48	0xc002f5cab0882646	-2.3700155059384853
49	0xbfe2b90cd62e4124	-0.5850891288010058
